…
          "base_uri": "https://localhost:8080/"
        },
        "id": "V3H6uqzmnAXz",
        "outputId": "2961b54d-8f77-4451-d995-d7499fc72e70"
      },
      "execution_count": 10,
      "outputs": [
        {
          "output_type": "stream",
          "name": "stdout",
          "text": [
            "Model: \"sequential\"\n",
            "_________________________________________________________________\n",
            " Layer (type)                Output Shape              Param #   \n",
            "=================================================================\n",
            " conv2d (Conv2D)             (None, 32, 32, 32)        896       \n",
            "                                                                 \n",
            " conv2d_1 (Conv2D)           (None, 30, 30, 32)        9248      \n",
            "                                                                 \n",
            " max_pooling2d (MaxPooling2D  (None, 15, 15, 32)       0         \n",
            " )                                                               \n",
            "                                                                 \n",
            " dropout (Dropout)           (None, 15, 15, 32)        0         \n",
            "                                                                 \n",
            " conv2d_2 (Conv2D)           (None, 15, 15, 64)        18496     \n",
            "                                                                 \n",
            " conv2d_3 (Conv2D)           (None, 13, 13, 64)        36928     \n",
            "                                                                 \n",
            " max_pooling2d_1 (MaxPooling  (None, 6, 6, 64)         0         \n",
            " 2D)                                                             \n",
            "                                                                 \n",
            " dropout_1 (Dropout)         (None, 6, 6, 64)          0         \n",
            "                                                                 \n",
            " conv2d_4 (Conv2D)           (None, 6, 6, 64)          36928     \n",
            "                                                                 \n",
            " conv2d_5 (Conv2D)           (None, 4, 4, 64)          36928     \n",
            "                                                                 \n",
            " max_pooling2d_2 (MaxPooling  (None, 2, 2, 64)         0         \n",
            " 2D)                                                             \n",
            "                                                                 \n",
            " dropout_2 (Dropout)         (None, 2, 2, 64)          0         \n",
            "                                                                 \n",
            " flatten (Flatten)           (None, 256)               0         \n",
            "                                                                 \n",
            " dense (Dense)               (None, 512)               131584    \n",
            "                                                                 \n",
            " dropout_3 (Dropout)         (None, 512)               0         \n",
            "                                                                 \n",
            " dense_1 (Dense)             (None, 10)                5130      \n",
            "                                                                 \n",
            "=================================================================\n",
            "Total params: 276,138\n",
            "Trainable params: 276,138\n",
            "Non-trainable params: 0\n",
            "_________________________________________________________________\n",
            "Epoch 1/50\n",
…
